classification/model.tflite (tflite, 51856 bytes, 8 tensors)

SoundGate_DSCNN/output/MatMul i1 [3, 128] scale=0.0033594668 zero_point=0
0	0x25	0.12430027
1	0x05	0.016797334
2	0xda	-0.12765974
3	0xf8	-0.026875734
4	0xe7	-0.08398667
5	0xb1	-0.26539788
6	0xbb	-0.23180321
7	0xa0	-0.3225088
8	0x0f	0.050392002
9	0xb7	-0.24524108
10	0x0f	0.050392002
11	0xed	-0.06382987
12	0xbc	-0.22844374
13	0xcf	-0.16461387
14	0x36	0.1814112
15	0x13	0.06382987
16	0xcf	-0.16461387
17	0xbf	-0.21836534
18	0xc1	-0.21164641
19	0xd2	-0.15453547
20	0x0d	0.04367307
21	0xd5	-0.14445707
22	0x04	0.013437867
23	0x30	0.1612544
24	0xa6	-0.302352
25	0x08	0.026875734
26	0xa0	-0.3225088
27	0xec	-0.067189336
28	0xb3	-0.25867894
29	0xf8	-0.026875734
30	0xfa	-0.0201568
31	0x15	0.0705488
32	0x1e	0.100784004
33	0xb0	-0.26875734
34	0x03	0.0100784
35	0xe4	-0.09406507
36	0xc0	-0.21500587
37	0xc8	-0.18813014
38	0x1c	0.09406507
39	0xec	-0.067189336
40	0xf3	-0.04367307
41	0xbf	-0.21836534
42	0x9c	-0.33594668
43	0x00	0.0
44	0xaa	-0.28891414
45	0xa8	-0.29563308
46	0xf9	-0.023516268
47	0x3a	0.19484907
48	0x2b	0.14445707
49	0xb2	-0.2620384
50	0x11	0.057110935
51	0xf0	-0.05375147
52	0xea	-0.07390827
53	0xeb	-0.0705488
54	0x2d	0.151176
55	0x06	0.0201568
56	0xe7	-0.08398667
57	0x04	0.013437867
58	0xde	-0.11422187
59	0xf4	-0.0403136
60	0x25	0.12430027
61	0xb0	-0.26875734
62	0x20	0.10750294
63	0x33	0.1713328
64	0xf1	-0.050392002
65	0x20	0.10750294
66	0xbc	-0.22844374
67	0x1c	0.09406507
68	0x3e	0.20828694
69	0x32	0.16797334
70	0xcd	-0.1713328
71	0xd3	-0.151176
72	0xc4	-0.20156801
73	0xda	-0.12765974
74	0xb9	-0.23852214
75	0xa0	-0.3225088
76	0x14	0.067189336
77	0xae	-0.27547628
78	0x18	0.0806272
79	0xb5	-0.25196
80	0xa1	-0.31914935
81	0xc0	-0.21500587
82	0xf3	-0.04367307
83	0xd8	-0.13437867
84	0xcd	-0.1713328
85	0xcd	-0.1713328
86	0x32	0.16797334
87	0xfc	-0.013437867
88	0xcd	-0.1713328
89	0x0a	0.033594668
90	0x22	0.11422187
91	0xc0	-0.21500587
92	0xff	-0.0033594668
93	0xe4	-0.09406507
94	0x3d	0.20492747
95	0xdd	-0.11758134
96	0xdb	-0.12430027
97	0xea	-0.07390827
98	0x3f	0.21164641
99	0xa8	-0.29563308
100	0x19	0.08398667
101	0x09	0.030235201
102	0x9f	-0.32586828
103	0x34	0.17469227
104	0x2d	0.151176
105	0xad	-0.27883574
106	0x2d	0.151176
107	0x34	0.17469227
108	0xc1	-0.21164641
109	0xcb	-0.17805174
110	0x2d	0.151176
111	0xee	-0.060470402
112	0x0e	0.047032535
113	0x2c	0.14781654
114	0xe8	-0.0806272
115	0xd8	-0.13437867
116	0x27	0.1310192
117	0xdf	-0.110862404
118	0x26	0.12765974
119	0x26	0.12765974
120	0xa7	-0.29899254
121	0x03	0.0100784
122	0x03	0.0100784
123	0xf7	-0.030235201
124	0xaf	-0.2721168
125	0xb7	-0.24524108
126	0x00	0.0
127	0xb6	-0.24860054
128	0x54	0.2821952
129	0xc4	-0.20156801
130	0x5b	0.30571148
131	0xa9	-0.2922736
132	0x2c	0.14781654
133	0x58	0.29563308
134	0x5a	0.302352
135	0x1c	0.09406507
136	0x62	0.32922775
137	0x3c	0.20156801
138	0x65	0.33930615
139	0x66	0.3426656
140	0x4f	0.26539788
141	0x1e	0.100784004
142	0xf1	-0.050392002
143	0xe3	-0.09742454
144	0x45	0.23180321
145	0xf2	-0.047032535
146	0x6e	0.36954135
147	0x2c	0.14781654
148	0x2d	0.151176
149	0x51	0.2721168
150	0x6a	0.35610348
151	0xe6	-0.08734614
152	0x1c	0.09406507
153	0x61	0.32586828
154	0xfd	-0.0100784
155	0x35	0.17805174
156	0x60	0.3225088
157	0x54	0.2821952
158	0x6a	0.35610348
159	0xcc	-0.17469227
160	0x5a	0.302352
161	0x0d	0.04367307
162	0xb8	-0.24188161
163	0x30	0.1612544
164	0x41	0.21836534
165	0x3a	0.19484907
166	0xe3	-0.09742454
167	0x66	0.3426656
168	0x4c	0.25531948
169	0x09	0.030235201
170	0x1a	0.08734614
171	0xba	-0.23516268
172	0x1d	0.09742454
173	0x15	0.0705488
174	0x64	0.33594668
175	0x1b	0.0907056
176	0xb7	-0.24524108
177	0x52	0.27547628
178	0x62	0.32922775
179	0x50	0.26875734
180	0x6a	0.35610348
181	0x64	0.33594668
182	0xcd	-0.1713328
183	0x50	0.26875734
184	0x35	0.17805174
185	0x37	0.18477067
186	0x50	0.26875734
187	0x9d	-0.3325872
188	0xd5	-0.14445707
189	0x2f	0.15789494
190	0xe5	-0.0907056
191	0xc9	-0.18477067
192	0x96	-0.35610348
193	0x4a	0.24860054
194	0x48	0.24188161
195	0x5f	0.31914935
196	0xd4	-0.14781654
197	0xdd	-0.11758134
198	0x3c	0.20156801
199	0x1c	0.09406507
200	0xd5	-0.14445707
201	0xae	-0.27547628
202	0x11	0.057110935
203	0x64	0.33594668
204	0x6c	0.3628224
205	0x0d	0.04367307
206	0xca	-0.1814112
207	0x3c	0.20156801
208	0x5a	0.302352
209	0x5b	0.30571148
210	0x11	0.057110935
211	0x46	0.23516268
212	0x62	0.32922775
213	0x69	0.352744
214	0xdd	-0.11758134
215	0x64	0.33594668
216	0x17	0.077267736
217	0x65	0.33930615
218	0xc0	-0.21500587
219	0x08	0.026875734
220	0xb9	-0.23852214
221	0x47	0.23852214
222	0xe7	-0.08398667
223	0x4b	0.25196
224	0xb6	-0.24860054
225	0x5e	0.31578988
226	0xed	-0.06382987
227	0x5b	0.30571148
228	0xce	-0.16797334
229	0x68	0.34938455
230	0x3b	0.19820854
231	0xdf	-0.110862404
232	0xc0	-0.21500587
233	0x5a	0.302352
234	0xc3	-0.20492747
235	0x1f	0.10414347
236	0x1b	0.0907056
237	0x05	0.016797334
238	0xd0	-0.1612544
239	0x4a	0.24860054
240	0xd9	-0.1310192
241	0xd8	-0.13437867
242	0x2e	0.15453547
243	0x20	0.10750294
244	0x2b	0.14445707
245	0xb7	-0.24524108
246	0xfc	-0.013437867
247	0xe8	-0.0806272
248	0xfc	-0.013437867
249	0x3c	0.20156801
250	0x4b	0.25196
251	0x5a	0.302352
252	0x3f	0.21164641
253	0x3b	0.19820854
254	0xcc	-0.17469227
255	0x20	0.10750294

SoundGate_DSCNN/conv2d_2/Conv2D i1 [128, 1, 1, 128]
0	0xe6	-26
1	0x12	18
2	0xdf	-33
3	0xc9	-55
4	0x6d	109
5	0x12	18
6	0x02	2
7	0x0b	11
8	0xf2	-14
9	0xfa	-6
10	0xfa	-6
11	0xd2	-46
12	0x38	56
13	0xea	-22
14	0x08	8
15	0x14	20
16	0x44	68
17	0xf7	-9
18	0xd4	-44
19	0x51	81
20	0x12	18
21	0xeb	-21
22	0x0b	11
23	0x14	20
24	0x16	22
25	0xba	-70
26	0x19	25
27	0xe8	-24
28	0xb2	-78
29	0xe5	-27
30	0x34	52
31	0x21	33
32	0x09	9
33	0x15	21
34	0x07	7
35	0xc1	-63
36	0xf1	-15
37	0x0e	14
38	0x00	0
39	0xf7	-9
40	0xb0	-80
41	0xef	-17
42	0xe3	-29
43	0x81	-127
44	0xd4	-44
45	0x90	-112
46	0x5a	90
47	0xe5	-27
48	0x00	0
49	0x36	54
50	0x03	3
51	0xc5	-59
52	0x2c	44
53	0xc9	-55
54	0xe3	-29
55	0x18	24
56	0x1b	27
57	0xd0	-48
58	0xef	-17
59	0x41	65
60	0xdc	-36
61	0x03	3
62	0xe1	-31
63	0xca	-54
64	0x68	104
65	0xd1	-47
66	0x05	5
67	0x3b	59
68	0x03	3
69	0xde	-34
70	0x01	1
71	0xef	-17
72	0x59	89
73	0xec	-20
74	0x40	64
75	0x0e	14
76	0xbd	-67
77	0x0e	14
78	0x29	41
79	0x1d	29
80	0x52	82
81	0x13	19
82	0xc2	-62
83	0xbf	-65
84	0xf5	-11
85	0x07	7
86	0xe3	-29
87	0xb7	-73
88	0xbd	-67
89	0x4f	79
90	0x12	18
91	0xf0	-16
92	0xd1	-47
93	0xe2	-30
94	0x2e	46
95	0x0a	10
96	0xeb	-21
97	0xcb	-53
98	0xc2	-62
99	0x4d	77
100	0x2f	47
101	0x1c	28
102	0x00	0
103	0xc9	-55
104	0xcd	-51
105	0x24	36
106	0xe8	-24
107	0x54	84
108	0xe1	-31
109	0xd1	-47
110	0x26	38
111	0x2e	46
112	0x0d	13
113	0x0b	11
114	0xd0	-48
115	0x6a	106
116	0x30	48
117	0xdd	-35
118	0xed	-19
119	0x0d	13
120	0x1c	28
121	0xf2	-14
122	0xd4	-44
123	0xfa	-6
124	0x2f	47
125	0xde	-34
126	0xff	-1
127	0x1c	28
128	0x12	18
129	0xdf	-33
130	0xc9	-55
131	0xd7	-41
132	0xef	-17
133	0x02	2
134	0xdf	-33
135	0xe4	-28
136	0xfe	-2
137	0xc3	-61
138	0x32	50
139	0x27	39
140	0x38	56
141	0xf1	-15
142	0xee	-18
143	0x03	3
144	0x2d	45
145	0x04	4
146	0x42	66
147	0x1e	30
148	0x1d	29
149	0x07	7
150	0x25	37
151	0xbf	-65
152	0xe2	-30
153	0xe1	-31
154	0x1f	31
155	0x4a	74
156	0xf9	-7
157	0xe7	-25
158	0xdb	-37
159	0x07	7
160	0xf5	-11
161	0x0f	15
162	0xf2	-14
163	0x3d	61
164	0xed	-19
165	0x01	1
166	0x0f	15
167	0x09	9
168	0xe9	-23
169	0x30	48
170	0x6b	107
171	0x39	57
172	0x16	22
173	0xf2	-14
174	0x30	48
175	0x36	54
176	0x30	48
177	0x10	16
178	0x3e	62
179	0xd7	-41
180	0xeb	-21
181	0xf6	-10
182	0x7f	127
183	0x3c	60
184	0xde	-34
185	0x06	6
186	0x3d	61
187	0x00	0
188	0xe1	-31
189	0xce	-50
190	0x15	21
191	0x00	0
192	0x05	5
193	0xdf	-33
194	0xd9	-39
195	0x13	19
196	0x2a	42
197	0x06	6
198	0xe8	-24
199	0xe1	-31
200	0xff	-1
201	0x44	68
202	0xf8	-8
203	0xcd	-51
204	0x15	21
205	0xf5	-11
206	0xe4	-28
207	0xda	-38
208	0xeb	-21
209	0xe4	-28
210	0xf7	-9
211	0x21	33
212	0xdf	-33
213	0x3f	63
214	0x04	4
215	0xd9	-39
216	0x19	25
217	0xf1	-15
218	0x1b	27
219	0xed	-19
220	0x23	35
221	0xc0	-64
222	0xe3	-29
223	0x12	18
224	0x4d	77
225	0x0a	10
226	0x12	18
227	0xe5	-27
228	0xdc	-36
229	0xe2	-30
230	0xe5	-27
231	0x3a	58
232	0xda	-38
233	0xe5	-27
234	0x11	17
235	0xe0	-32
236	0xfb	-5
237	0x0f	15
238	0xd7	-41
239	0xe7	-25
240	0xfe	-2
241	0xf9	-7
242	0x06	6
243	0xd4	-44
244	0xa4	-92
245	0x04	4
246	0x70	112
247	0xe7	-25
248	0xef	-17
249	0x35	53
250	0xf0	-16
251	0xfd	-3
252	0x0e	14
253	0xfd	-3
254	0x28	40
255	0x1c	28

SoundGate_DSCNN/batch_normalization_4/FusedBatchNormV3;SoundGate_DSCNN/depthwise_conv2d_2/depthwise;SoundGate_DSCNN/conv2d_2/Conv2D i1 [1, 3, 3, 128]
0	0xd0	-48
1	0x3c	60
2	0xf3	-13
3	0xf8	-8
4	0x22	34
5	0x5c	92
6	0xf3	-13
7	0xc7	-57
8	0x8c	-116
9	0xb6	-74
10	0x10	16
11	0xe9	-23
12	0xf1	-15
13	0x36	54
14	0xa2	-94
15	0x2d	45
16	0x7f	127
17	0xca	-54
18	0xce	-50
19	0x62	98
20	0x1b	27
21	0x4e	78
22	0x2d	45
23	0x81	-127
24	0xef	-17
25	0xeb	-21
26	0x28	40
27	0xd9	-39
28	0x04	4
29	0xba	-70
30	0xf7	-9
31	0x5b	91
32	0xa7	-89
33	0x06	6
34	0x81	-127
35	0x3d	61
36	0x7f	127
37	0xf4	-12
38	0x81	-127
39	0x10	16
40	0xdb	-37
41	0x25	37
42	0x16	22
43	0x65	101
44	0x9b	-101
45	0x60	96
46	0x7c	124
47	0xbb	-69
48	0xea	-22
49	0x29	41
50	0xdc	-36
51	0xfe	-2
52	0x7f	127
53	0xe0	-32
54	0xd8	-40
55	0xf1	-15
56	0x81	-127
57	0xc9	-55
58	0x0b	11
59	0x3a	58
60	0x01	1
61	0xed	-19
62	0x81	-127
63	0x1b	27
64	0x96	-106
65	0xba	-70
66	0x21	33
67	0x14	20
68	0x08	8
69	0xe6	-26
70	0xf5	-11
71	0x47	71
72	0x7f	127
73	0x38	56
74	0x4c	76
75	0x99	-103
76	0x81	-127
77	0xe9	-23
78	0xb9	-71
79	0xaf	-81
80	0x7f	127
81	0x81	-127
82	0xc8	-56
83	0x6e	110
84	0xe7	-25
85	0xbd	-67
86	0xa7	-89
87	0xe2	-30
88	0xe5	-27
89	0xd7	-41
90	0x10	16
91	0xce	-50
92	0xf3	-13
93	0xf5	-11
94	0xf1	-15
95	0x25	37
96	0x7f	127
97	0x0c	12
98	0x50	80
99	0xb8	-72
100	0xbb	-69
101	0x1d	29
102	0x7f	127
103	0x7f	127
104	0xe8	-24
105	0xc1	-63
106	0x47	71
107	0xe0	-32
108	0x33	51
109	0xe0	-32
110	0x22	34
111	0x3e	62
112	0xd7	-41
113	0xcd	-51
114	0x0e	14
115	0x9a	-102
116	0xb4	-76
117	0x5a	90
118	0xa9	-87
119	0xb5	-75
120	0xdf	-33
121	0x3e	62
122	0x86	-122
123	0x28	40
124	0xb8	-72
125	0xc7	-57
126	0x27	39
127	0xfc	-4
128	0xbc	-68
129	0x06	6
130	0x7f	127
131	0x09	9
132	0x7f	127
133	0xb2	-78
134	0x06	6
135	0xf1	-15
136	0xe8	-24
137	0x7f	127
138	0x7f	127
139	0x81	-127
140	0x0a	10
141	0x49	73
142	0x81	-127
143	0xeb	-21
144	0x10	16
145	0x2e	46
146	0x53	83
147	0x7f	127
148	0x3a	58
149	0x7f	127
150	0xc8	-56
151	0xd4	-44
152	0x7f	127
153	0x81	-127
154	0xec	-20
155	0x4b	75
156	0xed	-19
157	0x6e	110
158	0x81	-127
159	0x3a	58
160	0x29	41
161	0xa2	-94
162	0x05	5
163	0x32	50
164	0xfe	-2
165	0x61	97
166	0x9a	-102
167	0x7f	127
168	0x4a	74
169	0xb2	-78
170	0xa8	-88
171	0x6e	110
172	0x0f	15
173	0x7f	127
174	0x19	25
175	0x0c	12
176	0x9b	-101
177	0xcd	-51
178	0x7f	127
179	0xfa	-6
180	0x5f	95
181	0xe1	-31
182	0xc2	-62
183	0xa4	-92
184	0xab	-85
185	0xe0	-32
186	0x7f	127
187	0xde	-34
188	0xc4	-60
189	0x22	34
190	0x84	-124
191	0x0b	11
192	0x9d	-99
193	0xf1	-15
194	0x3b	59
195	0x08	8
196	0xfd	-3
197	0x1f	31
198	0xdf	-33
199	0xd2	-46
200	0x3c	60
201	0x23	35
202	0xa9	-87
203	0x34	52
204	0x40	64
205	0x2e	46
206	0x58	88
207	0x81	-127
208	0xef	-17
209	0x44	68
210	0xb0	-80
211	0xf0	-16
212	0xed	-19
213	0x7d	125
214	0xf3	-13
215	0x1f	31
216	0x9f	-97
217	0x7f	127
218	0x7f	127
219	0x6e	110
220	0xc5	-59
221	0x8e	-114
222	0x64	100
223	0x28	40
224	0x16	22
225	0x06	6
226	0x58	88
227	0x86	-122
228	0x7f	127
229	0x07	7
230	0xac	-84
231	0xdc	-36
232	0x7f	127
233	0x14	20
234	0x46	70
235	0x7f	127
236	0x61	97
237	0xd8	-40
238	0xe7	-25
239	0x10	16
240	0xf8	-8
241	0x8a	-118
242	0x08	8
243	0xcf	-49
244	0xd5	-43
245	0xaa	-86
246	0x1d	29
247	0x46	70
248	0xeb	-21
249	0x64	100
250	0xc9	-55
251	0xee	-18
252	0xdd	-35
253	0x33	51
254	0x81	-127
255	0x5c	92

SoundGate_DSCNN/conv2d_1/Conv2D i1 [128, 1, 1, 64]
0	0x62	98
1	0xf7	-9
2	0xf9	-7
3	0x8d	-115
4	0x05	5
5	0xce	-50
6	0x41	65
7	0xd7	-41
8	0x70	112
9	0x9e	-98
10	0x66	102
11	0x9a	-102
12	0x52	82
13	0xcf	-49
14	0xcc	-52
15	0xf5	-11
16	0xd9	-39
17	0x44	68
18	0x16	22
19	0xdd	-35
20	0xd7	-41
21	0x4d	77
22	0x37	55
23	0x41	65
24	0xaa	-86
25	0x45	69
26	0x71	113
27	0x70	112
28	0xf3	-13
29	0x07	7
30	0x6a	106
31	0x9b	-101
32	0xec	-20
33	0x4a	74
34	0x29	41
35	0x28	40
36	0xba	-70
37	0x6b	107
38	0x84	-124
39	0xda	-38
40	0x7f	127
41	0xf3	-13
42	0x0b	11
43	0x11	17
44	0x24	36
45	0xc7	-57
46	0x13	19
47	0x0a	10
48	0xf5	-11
49	0x28	40
50	0xb7	-73
51	0x41	65
52	0xdf	-33
53	0x52	82
54	0xd5	-43
55	0xc4	-60
56	0x37	55
57	0x00	0
58	0x6b	107
59	0x0d	13
60	0xd2	-46
61	0xa4	-92
62	0x5c	92
63	0xf4	-12
64	0x09	9
65	0x9d	-99
66	0xed	-19
67	0xdb	-37
68	0x3c	60
69	0x45	69
70	0x13	19
71	0xed	-19
72	0xa1	-95
73	0x05	5
74	0xf7	-9
75	0x3b	59
76	0x0e	14
77	0xd6	-42
78	0xcc	-52
79	0x4c	76
80	0x18	24
81	0xef	-17
82	0x44	68
83	0xba	-70
84	0x07	7
85	0xd7	-41
86	0x74	116
87	0xcd	-51
88	0xcd	-51
89	0xff	-1
90	0xfc	-4
91	0x91	-111
92	0x06	6
93	0xa9	-87
94	0x2b	43
95	0x0e	14
96	0x14	20
97	0xfb	-5
98	0x17	23
99	0xf3	-13
100	0xde	-34
101	0x1b	27
102	0xff	-1
103	0x7f	127
104	0xdb	-37
105	0x3b	59
106	0xd8	-40
107	0xb9	-71
108	0xc5	-59
109	0xf5	-11
110	0xda	-38
111	0xe3	-29
112	0xe0	-32
113	0x1e	30
114	0xe6	-26
115	0x23	35
116	0x43	67
117	0xfb	-5
118	0x33	51
119	0xcf	-49
120	0xff	-1
121	0x08	8
122	0xd5	-43
123	0xf0	-16
124	0xf4	-12
125	0x01	1
126	0xfd	-3
127	0xed	-19
128	0x3a	58
129	0x0e	14
130	0x2a	42
131	0xc9	-55
132	0x13	19
133	0x20	32
134	0xff	-1
135	0x36	54
136	0xae	-82
137	0xd3	-45
138	0xe9	-23
139	0x39	57
140	0xfb	-5
141	0xfa	-6
142	0xa3	-93
143	0xbc	-68
144	0xe3	-29
145	0xc0	-64
146	0x3a	58
147	0xc5	-59
148	0xed	-19
149	0xfa	-6
150	0xe1	-31
151	0x05	5
152	0xf9	-7
153	0xb2	-78
154	0x15	21
155	0xd5	-43
156	0x3e	62
157	0x1f	31
158	0xeb	-21
159	0xe0	-32
160	0xc9	-55
161	0x81	-127
162	0x13	19
163	0xc6	-58
164	0xe9	-23
165	0x27	39
166	0xbf	-65
167	0x14	20
168	0xd2	-46
169	0xf9	-7
170	0x4d	77
171	0x1c	28
172	0xbb	-69
173	0x50	80
174	0xf1	-15
175	0x37	55
176	0x90	-112
177	0x9a	-102
178	0xc1	-63
179	0xc9	-55
180	0x46	70
181	0xad	-83
182	0x02	2
183	0xda	-38
184	0x3a	58
185	0x2e	46
186	0x20	32
187	0xc9	-55
188	0x28	40
189	0xde	-34
190	0x42	66
191	0xf1	-15
192	0x55	85
193	0xc9	-55
194	0xf3	-13
195	0xcb	-53
196	0x37	55
197	0x16	22
198	0xef	-17
199	0x4b	75
200	0xcd	-51
201	0xd1	-47
202	0xe8	-24
203	0xc3	-61
204	0xe2	-30
205	0xf5	-11
206	0x59	89
207	0xfa	-6
208	0xea	-22
209	0x16	22
210	0xc0	-64
211	0x05	5
212	0x1d	29
213	0xb0	-80
214	0xdc	-36
215	0x0c	12
216	0x45	69
217	0xa5	-91
218	0xdf	-33
219	0x07	7
220	0x3d	61
221	0xb6	-74
222	0x81	-127
223	0xe6	-26
224	0x84	-124
225	0xe6	-26
226	0x39	57
227	0x10	16
228	0x35	53
229	0xba	-70
230	0x07	7
231	0x5a	90
232	0xed	-19
233	0x0e	14
234	0x94	-108
235	0xbf	-65
236	0xc4	-60
237	0xdd	-35
238	0xa2	-94
239	0x3b	59
240	0x17	23
241	0x1f	31
242	0x11	17
243	0x22	34
244	0x1f	31
245	0x56	86
246	0x26	38
247	0xf2	-14
248	0x58	88
249	0xe0	-32
250	0xf7	-9
251	0x44	68
252	0x58	88
253	0x18	24
254	0x0b	11
255	0x34	52

SoundGate_DSCNN/batch_normalization_2/FusedBatchNormV3;SoundGate_DSCNN/depthwise_conv2d_1/depthwise i1 [1, 3, 3, 64]
0	0x81	-127
1	0xd8	-40
2	0x7f	127
3	0x10	16
4	0x1a	26
5	0xd9	-39
6	0x76	118
7	0xdc	-36
8	0x48	72
9	0xd8	-40
10	0x51	81
11	0x98	-104
12	0x8d	-115
13	0x14	20
14	0x1e	30
15	0xb3	-77
16	0xc4	-60
17	0xcb	-53
18	0x18	24
19	0xdd	-35
20	0x1f	31
21	0x7f	127
22	0x13	19
23	0x1b	27
24	0xc6	-58
25	0xa3	-93
26	0xba	-70
27	0xa7	-89
28	0xbb	-69
29	0xe9	-23
30	0x95	-107
31	0x16	22
32	0x1d	29
33	0x42	66
34	0xd3	-45
35	0x81	-127
36	0x49	73
37	0x81	-127
38	0xb8	-72
39	0x85	-123
40	0x81	-127
41	0xdd	-35
42	0x6a	106
43	0x53	83
44	0x7f	127
45	0x81	-127
46	0xa9	-87
47	0x1b	27
48	0xd6	-42
49	0x83	-125
50	0x4f	79
51	0xf2	-14
52	0x7f	127
53	0xc8	-56
54	0x8b	-117
55	0xd8	-40
56	0x9f	-97
57	0x25	37
58	0x04	4
59	0x81	-127
60	0x11	17
61	0x81	-127
62	0x3e	62
63	0x62	98
64	0x29	41
65	0x92	-110
66	0xd5	-43
67	0x41	65
68	0x4d	77
69	0x32	50
70	0x7f	127
71	0x7f	127
72	0xe5	-27
73	0xf4	-12
74	0x38	56
75	0xc0	-64
76	0xd7	-41
77	0xf2	-14
78	0xba	-70
79	0xd6	-42
80	0xaf	-81
81	0xc1	-63
82	0x4c	76
83	0xec	-20
84	0x81	-127
85	0x41	65
86	0x07	7
87	0x7f	127
88	0xd2	-46
89	0xbc	-68
90	0xb3	-77
91	0xce	-50
92	0x56	86
93	0x7f	127
94	0x81	-127
95	0xed	-19
96	0x3d	61
97	0x7f	127
98	0x10	16
99	0xbe	-66
100	0x1c	28
101	0x06	6
102	0xa8	-88
103	0x31	49
104	0x05	5
105	0xe1	-31
106	0x08	8
107	0x7f	127
108	0xf2	-14
109	0xf6	-10
110	0xf3	-13
111	0xcb	-53
112	0x1d	29
113	0xfc	-4
114	0x8b	-117
115	0x28	40
116	0xf0	-16
117	0xed	-19
118	0xf5	-11
119	0x7f	127
120	0x8c	-116
121	0xf3	-13
122	0xc1	-63
123	0xd3	-45
124	0x37	55
125	0x12	18
126	0x5a	90
127	0xf5	-11
128	0xdb	-37
129	0x17	23
130	0x5d	93
131	0x35	53
132	0x7f	127
133	0x7f	127
134	0xe6	-26
135	0x34	52
136	0x11	17
137	0xbe	-66
138	0x6c	108
139	0x81	-127
140	0x50	80
141	0x7f	127
142	0xec	-20
143	0x81	-127
144	0x50	80
145	0x7f	127
146	0x16	22
147	0x81	-127
148	0x8d	-115
149	0x2d	45
150	0x2c	44
151	0xda	-38
152	0xce	-50
153	0xd2	-46
154	0xfc	-4
155	0x7f	127
156	0x7f	127
157	0x71	113
158	0xe6	-26
159	0x3e	62
160	0x2b	43
161	0x52	82
162	0x7f	127
163	0x96	-106
164	0xee	-18
165	0xfc	-4
166	0xd0	-48
167	0x33	51
168	0xdf	-33
169	0xd7	-41
170	0x1e	30
171	0x64	100
172	0xdf	-33
173	0x10	16
174	0xd3	-45
175	0xd4	-44
176	0xd8	-40
177	0x72	114
178	0x7f	127
179	0xf8	-8
180	0x08	8
181	0x06	6
182	0x88	-120
183	0x65	101
184	0x81	-127
185	0x1f	31
186	0x81	-127
187	0x23	35
188	0x21	33
189	0xbe	-66
190	0x39	57
191	0xf2	-14
192	0x8e	-114
193	0x1e	30
194	0x20	32
195	0x7f	127
196	0xe6	-26
197	0x37	55
198	0x4f	79
199	0xec	-20
200	0x0e	14
201	0xfe	-2
202	0x05	5
203	0xd9	-39
204	0x7f	127
205	0xfc	-4
206	0x35	53
207	0x6c	108
208	0xde	-34
209	0x06	6
210	0x81	-127
211	0x0c	12
212	0xc3	-61
213	0x56	86
214	0x5a	90
215	0xc8	-56
216	0x6d	109
217	0x79	121
218	0xb4	-76
219	0x09	9
220	0x8e	-114
221	0xc6	-58
222	0x00	0
223	0xce	-50
224	0xd7	-41
225	0x08	8
226	0x36	54
227	0x32	50
228	0xef	-17
229	0xf0	-16
230	0x81	-127
231	0xde	-34
232	0xdb	-37
233	0xda	-38
234	0x40	64
235	0x28	40
236	0x12	18
237	0x71	113
238	0xcb	-53
239	0x81	-127
240	0xdb	-37
241	0xe8	-24
242	0x00	0
243	0x8e	-114
244	0xec	-20
245	0xc1	-63
246	0x02	2
247	0x33	51
248	0xe4	-28
249	0xc4	-60
250	0xb7	-73
251	0xc1	-63
252	0xa0	-96
253	0xfc	-4
254	0x7f	127
255	0x9a	-102

SoundGate_DSCNN/conv2d/Conv2D i1 [64, 1, 1, 32]
0	0xdc	-36
1	0x00	0
2	0x3a	58
3	0xc3	-61
4	0xe5	-27
5	0xa8	-88
6	0xe3	-29
7	0xbe	-66
8	0xa2	-94
9	0xae	-82
10	0x21	33
11	0x3a	58
12	0x7f	127
13	0x61	97
14	0x59	89
15	0x93	-109
16	0xa3	-93
17	0x28	40
18	0x23	35
19	0x29	41
20	0xbe	-66
21	0x97	-105
22	0x09	9
23	0x8f	-113
24	0x20	32
25	0xf4	-12
26	0xb1	-79
27	0x4b	75
28	0x21	33
29	0xe3	-29
30	0xa8	-88
31	0x44	68
32	0x89	-119
33	0xd0	-48
34	0x02	2
35	0x1d	29
36	0xa9	-87
37	0x9f	-97
38	0x72	114
39	0x28	40
40	0x0e	14
41	0xb6	-74
42	0x16	22
43	0xee	-18
44	0x30	48
45	0xa6	-90
46	0xb7	-73
47	0x19	25
48	0x50	80
49	0x99	-103
50	0x60	96
51	0xcf	-49
52	0x7c	124
53	0x2d	45
54	0xc9	-55
55	0x04	4
56	0xc8	-56
57	0xb1	-79
58	0xf6	-10
59	0x30	48
60	0x7f	127
61	0x0e	14
62	0x2b	43
63	0x65	101
64	0xcf	-49
65	0x3e	62
66	0x25	37
67	0x21	33
68	0x4f	79
69	0xf4	-12
70	0xbe	-66
71	0x71	113
72	0x37	55
73	0x3d	61
74	0x4f	79
75	0x9b	-101
76	0xb6	-74
77	0x81	-127
78	0x57	87
79	0xcd	-51
80	0xec	-20
81	0xd6	-42
82	0x8e	-114
83	0x14	20
84	0xf9	-7
85	0xf7	-9
86	0x68	104
87	0xeb	-21
88	0x0e	14
89	0x96	-106
90	0xc0	-64
91	0x0d	13
92	0xf0	-16
93	0xf1	-15
94	0x1d	29
95	0xd6	-42
96	0xe1	-31
97	0x02	2
98	0xd0	-48
99	0x50	80
100	0x75	117
101	0x32	50
102	0x9b	-101
103	0xe9	-23
104	0x2a	42
105	0x18	24
106	0x1a	26
107	0x3e	62
108	0x02	2
109	0x37	55
110	0xca	-54
111	0xd7	-41
112	0x59	89
113	0x48	72
114	0xe8	-24
115	0x29	41
116	0xcf	-49
117	0x07	7
118	0xec	-20
119	0x38	56
120	0xa9	-87
121	0x81	-127
122	0xfe	-2
123	0xf1	-15
124	0x43	67
125	0x33	51
126	0xbf	-65
127	0xba	-70
128	0xac	-84
129	0x19	25
130	0x05	5
131	0xfc	-4
132	0x04	4
133	0x99	-103
134	0xec	-20
135	0x27	39
136	0x28	40
137	0x02	2
138	0x7f	127
139	0x20	32
140	0x2f	47
141	0x41	65
142	0x4c	76
143	0x4e	78
144	0x05	5
145	0xe6	-26
146	0xec	-20
147	0x46	70
148	0x5d	93
149	0x1f	31
150	0x9c	-100
151	0xd7	-41
152	0xc5	-59
153	0x8b	-117
154	0x0b	11
155	0xb4	-76
156	0xd1	-47
157	0x48	72
158	0xe6	-26
159	0x30	48
160	0xf4	-12
161	0x05	5
162	0xf9	-7
163	0xec	-20
164	0xbe	-66
165	0x81	-127
166	0x08	8
167	0xbb	-69
168	0xe0	-32
169	0xeb	-21
170	0x15	21
171	0xc7	-57
172	0xc2	-62
173	0xb5	-75
174	0xcf	-49
175	0xe8	-24
176	0xcb	-53
177	0x11	17
178	0xb1	-79
179	0xef	-17
180	0x42	66
181	0xe6	-26
182	0xf7	-9
183	0xb3	-77
184	0xdf	-33
185	0x0f	15
186	0x3e	62
187	0x03	3
188	0xee	-18
189	0xda	-38
190	0xd6	-42
191	0xe0	-32
192	0xe4	-28
193	0x29	41
194	0x13	19
195	0x2e	46
196	0x30	48
197	0x33	51
198	0x31	49
199	0x29	41
200	0x40	64
201	0x40	64
202	0xbe	-66
203	0x81	-127
204	0xee	-18
205	0xa8	-88
206	0x0c	12
207	0xe8	-24
208	0x2b	43
209	0x12	18
210	0xdf	-33
211	0xbb	-69
212	0xc3	-61
213	0x24	36
214	0x3d	61
215	0x22	34
216	0x16	22
217	0xfe	-2
218	0x44	68
219	0xc1	-63
220	0x40	64
221	0xce	-50
222	0xdf	-33
223	0xfa	-6
224	0x28	40
225	0x06	6
226	0xde	-34
227	0x33	51
228	0x41	65
229	0xbf	-65
230	0x24	36
231	0xf0	-16
232	0x2f	47
233	0x3e	62
234	0x05	5
235	0xd8	-40
236	0xd9	-39
237	0x46	70
238	0xeb	-21
239	0xfa	-6
240	0xfe	-2
241	0xfc	-4
242	0x1f	31
243	0x3e	62
244	0x5c	92
245	0x95	-107
246	0x33	51
247	0xd9	-39
248	0x1a	26
249	0x0d	13
250	0x24	36
251	0x2a	42
252	0x7f	127
253	0xab	-85
254	0x44	68
255	0x19	25

SoundGate_DSCNN/batch_normalization/FusedBatchNormV3;SoundGate_DSCNN/depthwise_conv2d/depthwise i1 [1, 3, 3, 32]
0	0x98	-104
1	0xd6	-42
2	0xe7	-25
3	0x6a	106
4	0xbe	-66
5	0xb9	-71
6	0xb6	-74
7	0xc4	-60
8	0x81	-127
9	0x9d	-99
10	0x0c	12
11	0xd0	-48
12	0x0e	14
13	0xfa	-6
14	0xc0	-64
15	0xda	-38
16	0xa5	-91
17	0xbe	-66
18	0x27	39
19	0xc4	-60
20	0x47	71
21	0x1b	27
22	0x42	66
23	0xef	-17
24	0x10	16
25	0x35	53
26	0x07	7
27	0xd6	-42
28	0xdb	-37
29	0x1d	29
30	0x0a	10
31	0x4b	75
32	0x95	-107
33	0xe6	-26
34	0xa7	-89
35	0xf3	-13
36	0x7f	127
37	0x72	114
38	0xf1	-15
39	0xfc	-4
40	0xc9	-55
41	0xd6	-42
42	0xdb	-37
43	0x00	0
44	0x14	20
45	0x7f	127
46	0xa7	-89
47	0x37	55
48	0xf9	-7
49	0x7f	127
50	0x32	50
51	0x02	2
52	0xdd	-35
53	0x18	24
54	0x13	19
55	0x81	-127
56	0x9c	-100
57	0xe2	-30
58	0x12	18
59	0x09	9
60	0x5c	92
61	0x0f	15
62	0x48	72
63	0xa9	-87
64	0x81	-127
65	0x81	-127
66	0x1c	28
67	0x81	-127
68	0xaa	-86
69	0xc1	-63
70	0xe2	-30
71	0x1f	31
72	0x14	20
73	0xbe	-66
74	0x09	9
75	0x7f	127
76	0x1d	29
77	0x62	98
78	0xd7	-41
79	0x5d	93
80	0x7f	127
81	0x14	20
82	0xee	-18
83	0x21	33
84	0x4e	78
85	0xc0	-64
86	0x0f	15
87	0xa7	-89
88	0x24	36
89	0x01	1
90	0xdd	-35
91	0x1b	27
92	0x00	0
93	0x32	50
94	0x33	51
95	0x78	120
96	0xa6	-90
97	0x1e	30
98	0xec	-20
99	0xc3	-61
100	0x11	17
101	0x4b	75
102	0xcf	-49
103	0x7f	127
104	0x13	19
105	0xe7	-25
106	0xd9	-39
107	0xf2	-14
108	0xf7	-9
109	0xd4	-44
110	0x41	65
111	0xda	-38
112	0xeb	-21
113	0x4a	74
114	0x32	50
115	0x81	-127
116	0x33	51
117	0x0f	15
118	0x62	98
119	0xaf	-81
120	0x81	-127
121	0xf5	-11
122	0x55	85
123	0x01	1
124	0x21	33
125	0xd5	-43
126	0x31	49
127	0x24	36
128	0x36	54
129	0xe9	-23
130	0xfd	-3
131	0xa9	-87
132	0xad	-83
133	0x46	70
134	0x50	80
135	0x0c	12
136	0x2c	44
137	0x10	16
138	0xfc	-4
139	0xd9	-39
140	0xa0	-96
141	0x17	23
142	0x20	32
143	0xb3	-77
144	0x46	70
145	0x50	80
146	0xc7	-57
147	0xe3	-29
148	0x7f	127
149	0x81	-127
150	0xf1	-15
151	0x2e	46
152	0xc8	-56
153	0xd9	-39
154	0x2e	46
155	0x7f	127
156	0x8f	-113
157	0xe4	-28
158	0x65	101
159	0xc7	-57
160	0x52	82
161	0x25	37
162	0x81	-127
163	0x01	1
164	0x2f	47
165	0xa9	-87
166	0x05	5
167	0xd2	-46
168	0xba	-70
169	0x81	-127
170	0x14	20
171	0x21	33
172	0x7f	127
173	0x11	17
174	0x4f	79
175	0xe9	-23
176	0xd6	-42
177	0x63	99
178	0xe7	-25
179	0x23	35
180	0x29	41
181	0x12	18
182	0x39	57
183	0x43	67
184	0xc6	-58
185	0x07	7
186	0xf9	-7
187	0x09	9
188	0x81	-127
189	0x7f	127
190	0x0c	12
191	0x63	99
192	0x0a	10
193	0xc5	-59
194	0xfe	-2
195	0xbd	-67
196	0x40	64
197	0x7f	127
198	0xea	-22
199	0x7d	125
200	0xc7	-57
201	0xa0	-96
202	0x11	17
203	0xb0	-80
204	0xce	-50
205	0xd2	-46
206	0xfb	-5
207	0x18	24
208	0xed	-19
209	0x1d	29
210	0x7f	127
211	0xa5	-91
212	0xdf	-33
213	0x4c	76
214	0x81	-127
215	0x1e	30
216	0x9d	-99
217	0x81	-127
218	0x7f	127
219	0x15	21
220	0xfc	-4
221	0x2c	44
222	0xb8	-72
223	0x38	56
224	0x91	-111
225	0xfe	-2
226	0x47	71
227	0x4c	76
228	0x33	51
229	0x03	3
230	0x81	-127
231	0xfd	-3
232	0x96	-106
233	0x13	19
234	0x81	-127
235	0x4d	77
236	0x2b	43
237	0xc6	-58
238	0x7f	127
239	0x81	-127
240	0x97	-105
241	0x79	121
242	0xdf	-33
243	0x2b	43
244	0x3a	58
245	0xb2	-78
246	0x1a	26
247	0x37	55
248	0xc5	-59
249	0x8a	-118
250	0xb1	-79
251	0x57	87
252	0xc8	-56
253	0x00	0
254	0x81	-127
255	0x50	80

SoundGate_DSCNN/stem_conv/Conv2D i1 [32, 3, 3, 1]
0	0xdc	-36
1	0x35	53
2	0x81	-127
3	0x1c	28
4	0xf8	-8
5	0xeb	-21
6	0xe8	-24
7	0xf6	-10
8	0xd6	-42
9	0x23	35
10	0xee	-18
11	0xfa	-6
12	0x49	73
13	0x03	3
14	0xb9	-71
15	0x7f	127
16	0x17	23
17	0x47	71
18	0x69	105
19	0x81	-127
20	0xc9	-55
21	0x27	39
22	0x9e	-98
23	0x5b	91
24	0x4b	75
25	0x78	120
26	0x29	41
27	0xe2	-30
28	0x17	23
29	0xbe	-66
30	0x7f	127
31	0xe1	-31
32	0x10	16
33	0x19	25
34	0xb3	-77
35	0x53	83
36	0x8a	-118
37	0xf4	-12
38	0x21	33
39	0x6d	109
40	0x11	17
41	0x82	-126
42	0xfa	-6
43	0x47	71
44	0x81	-127
45	0x02	2
46	0x08	8
47	0xa1	-95
48	0xcd	-51
49	0x7f	127
50	0xb2	-78
51	0x84	-124
52	0xa8	-88
53	0xf3	-13
54	0x30	48
55	0x69	105
56	0xf6	-10
57	0x49	73
58	0x4c	76
59	0x30	48
60	0x40	64
61	0x81	-127
62	0xf5	-11
63	0xc1	-63
64	0xd0	-48
65	0xef	-17
66	0xeb	-21
67	0xb2	-78
68	0xac	-84
69	0x49	73
70	0x81	-127
71	0xdb	-37
72	0xe5	-27
73	0xfc	-4
74	0x7f	127
75	0x09	9
76	0xe5	-27
77	0x5f	95
78	0x3c	60
79	0x32	50
80	0x53	83
81	0x7f	127
82	0x47	71
83	0x09	9
84	0x1b	27
85	0x36	54
86	0x01	1
87	0xfd	-3
88	0x38	56
89	0x55	85
90	0x7f	127
91	0x25	37
92	0x09	9
93	0x51	81
94	0x3a	58
95	0x2c	44
96	0xe0	-32
97	0x23	35
98	0xcd	-51
99	0xe5	-27
100	0x99	-103
101	0x9a	-102
102	0xe0	-32
103	0x81	-127
104	0x82	-126
105	0x1d	29
106	0x9a	-102
107	0x9b	-101
108	0x18	24
109	0xee	-18
110	0xca	-54
111	0xf4	-12
112	0xfe	-2
113	0x81	-127
114	0xfc	-4
115	0x31	49
116	0xa9	-87
117	0x34	52
118	0x81	-127
119	0x37	55
120	0xfb	-5
121	0xc2	-62
122	0xc3	-61
123	0x0b	11
124	0x4c	76
125	0xfc	-4
126	0x99	-103
127	0xfb	-5
128	0xee	-18
129	0xaa	-86
130	0x19	25
131	0x37	55
132	0x4f	79
133	0x7f	127
134	0x07	7
135	0x42	66
136	0xf3	-13
137	0xf2	-14
138	0xbc	-68
139	0x7f	127
140	0xe9	-23
141	0x1b	27
142	0x37	55
143	0x29	41
144	0x7f	127
145	0xc4	-60
146	0x40	64
147	0xaa	-86
148	0xac	-84
149	0x2f	47
150	0x7d	125
151	0xe1	-31
152	0x85	-123
153	0x7f	127
154	0xde	-34
155	0xba	-70
156	0xc7	-57
157	0x2b	43
158	0x0d	13
159	0xcb	-53
160	0x2f	47
161	0x08	8
162	0xc3	-61
163	0xd0	-48
164	0x20	32
165	0x81	-127
166	0xb8	-72
167	0xc4	-60
168	0x8c	-116
169	0x44	68
170	0xd9	-39
171	0xf2	-14
172	0x74	116
173	0xfa	-6
174	0xe1	-31
175	0x7f	127
176	0xd9	-39
177	0x5a	90
178	0x30	48
179	0xf7	-9
180	0x12	18
181	0x4e	78
182	0x82	-126
183	0x58	88
184	0x35	53
185	0x81	-127
186	0xea	-22
187	0xce	-50
188	0xc5	-59
189	0xa4	-92
190	0x7f	127
191	0xb6	-74
192	0xdd	-35
193	0x1a	26
194	0xec	-20
195	0x4f	79
196	0x32	50
197	0xac	-84
198	0x19	25
199	0xe2	-30
200	0x0c	12
201	0x11	17
202	0x36	54
203	0x4f	79
204	0x7b	123
205	0xda	-38
206	0x81	-127
207	0x7f	127
208	0xdb	-37
209	0x28	40
210	0x75	117
211	0x2e	46
212	0x3a	58
213	0x05	5
214	0xcc	-52
215	0x93	-109
216	0xd0	-48
217	0xf5	-11
218	0x81	-127
219	0xc2	-62
220	0x16	22
221	0xad	-83
222	0xeb	-21
223	0xfe	-2
224	0x4d	77
225	0x9b	-101
226	0x65	101
227	0x7f	127
228	0xfb	-5
229	0xc0	-64
230	0x0e	14
231	0x12	18
232	0x08	8
233	0xa8	-88
234	0xa0	-96
235	0x07	7
236	0x26	38
237	0x0f	15
238	0x0f	15
239	0x7f	127
240	0x07	7
241	0x5b	91
242	0x7c	124
243	0x01	1
244	0x7a	122
245	0x9b	-101
246	0xcb	-53
247	0x7f	127
248	0x22	34
249	0x28	40
250	0x4e	78
251	0x17	23
252	0x7f	127
253	0xf7	-9
254	0x26	38
255	0x1c	28
