classification/model.tflite (tflite, 51856 bytes, 8 tensors)

SoundGate_DSCNN/output/MatMul i1 [3, 128] scale=0.0028869943 zero_point=0
00000000: 0e0e b61b 2fae cef7 334d 96a3 17ee a4ce
00000010: 979f d22c d716 b9b6 21d1 1928 35a6 3b12
00000020: e804 b2e3 9cf1 2f2c de28 93a5 c8a7 fdb6
00000030: 1ca4 cf18 b5f2 8abe a812 0c39 b9e6 2912
00000040: bb83 2c8e cea7 aac8 38d8 032a 311a 00c0
00000050: 3d10 47c2 c325 bed8 bbe6 04c5 2312 35c4
00000060: b7b3 b1f1 fc93 9f9a 2642 0fb4 b541 1337
00000070: fea8 c522 b82f df03 b5d8 bf23 e0d1 061e
00000080: 605e 56d9 f065 30c2 b929 2451 453e 6310
00000090: 361c 67ac 61e3 4a05 e9aa f40a e11a 2062
000000a0: 2b19 2053 743d d801 abd2 286c 561e 6d28
000000b0: 6804 4366 1939 712c 1169 d9b9 f55b e0fd
000000c0: 0519 e037 3409 256c 524c e557 cf74 765e
000000d0: b4c7 f5c6 5ae5 2355 3e6a bc30 ce67 cb2e
000000e0: 2319 224b f9de 7dfe c10c 7f07 7659 bd14
000000f0: 3328 569f 6ae9 4a4c 480a 5fbc b1ac 5417
0.04041792 0.04041792 -0.21363758 0.077948846 0.13568874 -0.23673353 -0.14434971 -0.025982948
0.1472367 0.22229856 -0.3060214 -0.26849046 0.06640087 -0.051965896 -0.26560348 -0.14434971
-0.3031344 -0.28003845 -0.13280174 0.12702775 -0.11836676 0.063513875 -0.20497659 -0.21363758
0.09527081 -0.13568874 0.072174855 0.11547977 0.1530107 -0.2598295 0.17033266 0.051965896
-0.06928787 0.011547977 -0.22518556 -0.08372284 -0.28869942 -0.043304913 0.13568874 0.12702775
-0.09815781 0.11547977 -0.31468236 -0.26271647 -0.16167168 -0.25694248 -0.008660983 -0.21363758
0.08083584 -0.26560348 -0.14146271 0.06928787 -0.21652457 -0.04041792 -0.3406653 -0.19054163
-0.2540555 0.051965896 0.034643933 0.16455868 -0.20497659 -0.07506185 0.11836676 0.051965896
-0.19920261 -0.3608743 0.12702775 -0.32911736 -0.14434971 -0.25694248 -0.24828151 -0.16167168
0.16167168 -0.11547977 0.008660983 0.12125376 0.14146271 0.07506185 0.0 -0.18476763
0.17610665 0.04619191 0.20497659 -0.17899364 -0.17610665 0.10681879 -0.19054163 -0.11547977
-0.19920261 -0.07506185 0.011547977 -0.17033266 0.1010448 0.051965896 0.1530107 -0.17321965
-0.21075058 -0.22229856 -0.22807255 -0.043304913 -0.011547977 -0.31468236 -0.28003845 -0.2944734
0.10970578 0.19054163 0.043304913 -0.21941157 -0.21652457 0.18765463 0.05485289 0.15878469
-0.0057739886 -0.2540555 -0.17033266 0.09815781 -0.20786358 0.13568874 -0.09527081 0.008660983
-0.21652457 -0.11547977 -0.18765463 0.1010448 -0.09238382 -0.13568874 0.017321967 0.086609825
0.27715147 0.27137747 0.24828151 -0.11259278 -0.04619191 0.29158643 0.13857573 -0.17899364
-0.20497659 0.11836676 0.10393179 0.23384653 0.19920261 0.17899364 0.28581244 0.04619191
0.15589769 0.08083584 0.29736042 -0.24250752 0.28003845 -0.08372284 0.21363758 0.014434971
-0.06640087 -0.24828151 -0.034643933 0.028869942 -0.08949682 0.07506185 0.09238382 0.28292543
0.124140754 0.072174855 0.09238382 0.23962052 0.33489135 0.17610665 -0.11547977 0.0028869943
-0.24539451 -0.13280174 0.11547977 0.31179538 0.24828151 0.086609825 0.31468236 0.11547977
0.3002474 0.011547977 0.19342862 0.2944734 0.072174855 0.16455868 0.32623035 0.12702775
0.049078904 0.3031344 -0.11259278 -0.20497659 -0.031756938 0.26271647 -0.09238382 -0.008660983
0.014434971 0.072174855 -0.09238382 0.15878469 0.1501237 0.025982948 0.10681879 0.31179538
0.23673353 0.21941157 -0.077948846 0.2511685 -0.14146271 0.33489135 0.3406653 0.27137747
-0.21941157 -0.16455868 -0.031756938 -0.16744567 0.2598295 -0.077948846 0.1010448 0.24539451
0.17899364 0.3060214 -0.19631562 0.13857573 -0.14434971 0.29736042 -0.1530107 0.13280174
0.1010448 0.072174855 0.09815781 0.21652457 -0.02020896 -0.09815781 0.3608743 -0.0057739886
-0.18188064 0.034643933 0.3666483 0.02020896 0.3406653 0.25694248 -0.19342862 0.057739884
0.1472367 0.11547977 0.24828151 -0.28003845 0.3060214 -0.06640087 0.21363758 0.21941157
0.20786358 0.028869942 0.27426445 -0.19631562 -0.22807255 -0.24250752 0.24250752 0.06640087

SoundGate_DSCNN/conv2d_2/Conv2D i1 [128, 1, 1, 128]
00000000: 08f6 3618 b46a edd2 e854 65e9 0223 1d2a
00000010: ce15 d953 430a cf54 c3c8 1ec2 ded8 e3c1
00000020: 4b57 2ddc f724 32de a9f2 b8d5 e21d f2ff
00000030: 0732 b319 dd22 df5a e9e2 ebfe db47 404e
00000040: 0b24 f63b 59f9 1c7f ea40 22c5 fe1f 6004
00000050: d4dc 16df 0833 1630 fbdb 0224 b14f 69c0
00000060: 0437 c1c4 f42d 012f 5e3f 27ae 05c4 c824
00000070: 382e a6c4 d00a 1e24 e2b2 d00d 0129 e6f9
00000080: b533 2210 f21b dd10 f64a 160b 11dd f8da
00000090: 0cea f115 230c f123 0cea 0c0c 12dd 3a22
000000a0: 0834 f5be 2c2c dd04 fee2 e0d4 d11c daf9
000000b0: 22ff c10d 182e 1500 e917 ccfb 201e ea2a
000000c0: 1d13 1bee 2c0a ec7f d708 f60d f9fe 2ae1
000000d0: 06ef ebf7 c1d7 0102 3cf3 f620 d220 fd36
000000e0: 23fa 09da fb03 1cfc 0cee ebed e5de f021
000000f0: 0931 dec1 fc06 1c20 caf2 e842 10fc d408
8 -10 54 24 -76 106 -19 -46
-24 84 101 -23 2 35 29 42
-50 21 -39 83 67 10 -49 84
-61 -56 30 -62 -34 -40 -29 -63
75 87 45 -36 -9 36 50 -34
-87 -14 -72 -43 -30 29 -14 -1
7 50 -77 25 -35 34 -33 90
-23 -30 -21 -2 -37 71 64 78
11 36 -10 59 89 -7 28 127
-22 64 34 -59 -2 31 96 4
-44 -36 22 -33 8 51 22 48
-5 -37 2 36 -79 79 105 -64
4 55 -63 -60 -12 45 1 47
94 63 39 -82 5 -60 -56 36
56 46 -90 -60 -48 10 30 36
-30 -78 -48 13 1 41 -26 -7
-75 51 34 16 -14 27 -35 16
-10 74 22 11 17 -35 -8 -38
12 -22 -15 21 35 12 -15 35
12 -22 12 12 18 -35 58 34
8 52 -11 -66 44 44 -35 4
-2 -30 -32 -44 -47 28 -38 -7
34 -1 -63 13 24 46 21 0
-23 23 -52 -5 32 30 -22 42
29 19 27 -18 44 10 -20 127
-41 8 -10 13 -7 -2 42 -31
6 -17 -21 -9 -63 -41 1 2
60 -13 -10 32 -46 32 -3 54
35 -6 9 -38 -5 3 28 -4
12 -18 -21 -19 -27 -34 -16 33
9 49 -34 -63 -4 6 28 32
-54 -14 -24 66 16 -4 -44 8

SoundGate_DSCNN/batch_normalization_4/FusedBatchNormV3;SoundGate_DSCNN/depthwise_conv2d_2/depthwise;SoundGate_DSCNN/conv2d_2/Conv2D i1 [1, 3, 3, 128]
00000000: 422b 2781 b681 5f20 162f 7f7f 1db9 d560
00000010: f8d0 db7f 36c9 cb0a d118 c6c8 094b 248e
00000020: 10ac 25e7 117f fa22 1c29 4b27 3ae3 f481
00000030: e60e 887f 327f 5a3c 22f2 7f36 8143 b6af
00000040: 7f3c 307f dea8 81a4 1cbf d6fa f30f e1aa
00000050: 0b81 2da7 8157 d27a 4b9b 8181 f8b3 7f1f
00000060: 6446 a7be 4ac9 2aba 14ac 52df 7a61 077f
00000070: fb27 1227 3de7 4d2e df7f cbdb 2ed7 7f81
00000080: 3d31 81aa 1402 feb8 9c7f e6f1 13b2 81e6
00000090: 64a3 1d4d a2b6 7f81 8853 e5b6 42ac 9816
000000a0: ad9a 887f ced7 bb1d 7f7f e0bc fb05 2acb
000000b0: b1b3 810e 0b5d 9ace 3d81 71d8 be7f 7f30
000000c0: 590d 8110 b07f edb1 df7f 81bb 88e5 7f4e
000000d0: d724 0406 0fe4 aa63 7fda e5f5 9b7f 50a1
000000e0: 8111 6db4 ff1f 7fa9 dbf7 c3fb 3f2d 8107
000000f0: cdf4 217f ac97 1733 8172 cddb cc7f 9cfb
66 43 39 -127 -74 -127 95 32
22 47 127 127 29 -71 -43 96
-8 -48 -37 127 54 -55 -53 10
-47 24 -58 -56 9 75 36 -114
16 -84 37 -25 17 127 -6 34
28 41 75 39 58 -29 -12 -127
-26 14 -120 127 50 127 90 60
34 -14 127 54 -127 67 -74 -81
127 60 48 127 -34 -88 -127 -92
28 -65 -42 -6 -13 15 -31 -86
11 -127 45 -89 -127 87 -46 122
75 -101 -127 -127 -8 -77 127 31
100 70 -89 -66 74 -55 42 -70
20 -84 82 -33 122 97 7 127
-5 39 18 39 61 -25 77 46
-33 127 -53 -37 46 -41 127 -127
61 49 -127 -86 20 2 -2 -72
-100 127 -26 -15 19 -78 -127 -26
100 -93 29 77 -94 -74 127 -127
-120 83 -27 -74 66 -84 -104 22
-83 -102 -120 127 -50 -41 -69 29
127 127 -32 -68 -5 5 42 -53
-79 -77 -127 14 11 93 -102 -50
61 -127 113 -40 -66 127 127 48
89 13 -127 16 -80 127 -19 -79
-33 127 -127 -69 -120 -27 127 78
-41 36 4 6 15 -28 -86 99
127 -38 -27 -11 -101 127 80 -95
-127 17 109 -76 -1 31 127 -87
-37 -9 -61 -5 63 45 -127 7
-51 -12 33 127 -84 -105 23 51
-127 114 -51 -37 -52 127 -100 -5

SoundGate_DSCNN/conv2d_1/Conv2D i1 [128, 1, 1, 64]
00000000: 2585 6a03 3d0a 40f1 49cc 31f4 3b24 d6a1
00000010: bcdd df12 d612 05d0 7fba 57fd f94c 2973
00000020: 173d f496 f6f4 a66f 4235 a342 00ce 9bb6
00000030: fad0 ab2b a92c 303d fd48 ef2c 9f38 b414
00000040: 27ba 44e0 3319 cd14 06cb cca2 bb9d c98e
00000050: 3aca ba34 dc0c de33 36b0 f381 17c6 24c3
00000060: c1ec 2733 3cd9 bd18 e045 efc7 24d5 db35
00000070: 2335 f903 6658 d222 4bc7 d7e5 e1ca e8c8
00000080: ec47 f4ca b314 d71b 35ec 151b 04f3 10ec
00000090: 4626 d31f 2a16 1cbb 7fdc 1ef8 e165 5966
000000a0: cddc 5baf 38e6 ba49 bafc 5434 d2f6 390d
000000b0: f0ab f403 2d40 0d5e 14bd d91d 50d1 1f2f
000000c0: 231b ae7f fcf6 5314 fc4d 3815 e339 3e0a
000000d0: c320 fd5a e4f6 e7b0 c73c 5306 ede5 f691
000000e0: 24e6 ee20 113e d5b7 f3ef d350 00c2 b91d
000000f0: d43b d1dd d236 d3af 39b4 e6f5 9bd5 ee04
37 -123 106 3 61 10 64 -15
73 -52 49 -12 59 36 -42 -95
-68 -35 -33 18 -42 18 5 -48
127 -70 87 -3 -7 76 41 115
23 61 -12 -106 -10 -12 -90 111
66 53 -93 66 0 -50 -101 -74
-6 -48 -85 43 -87 44 48 61
-3 72 -17 44 -97 56 -76 20
39 -70 68 -32 51 25 -51 20
6 -53 -52 -94 -69 -99 -55 -114
58 -54 -70 52 -36 12 -34 51
54 -80 -13 -127 23 -58 36 -61
-63 -20 39 51 60 -39 -67 24
-32 69 -17 -57 36 -43 -37 53
35 53 -7 3 102 88 -46 34
75 -57 -41 -27 -31 -54 -24 -56
-20 71 -12 -54 -77 20 -41 27
53 -20 21 27 4 -13 16 -20
70 38 -45 31 42 22 28 -69
127 -36 30 -8 -31 101 89 102
-51 -36 91 -81 56 -26 -70 73
-70 -4 84 52 -46 -10 57 13
-16 -85 -12 3 45 64 13 94
20 -67 -39 29 80 -47 31 47
35 27 -82 127 -4 -10 83 20
-4 77 56 21 -29 57 62 10
-61 32 -3 90 -28 -10 -25 -80
-57 60 83 6 -19 -27 -10 -111
36 -26 -18 32 17 62 -43 -73
-13 -17 -45 80 0 -62 -71 29
-44 59 -47 -35 -46 54 -45 -81
57 -76 -26 -11 -101 -43 -18 4

SoundGate_DSCNN/batch_normalization_2/FusedBatchNormV3;SoundGate_DSCNN/depthwise_conv2d_1/depthwise i1 [1, 3, 3, 64]
00000000: 7f81 ffba d211 81b3 07ee a806 376f 0497
00000010: 15c7 2f5d 073c 10cc b7ea a9ea 8181 5571
00000020: b3ba faef 1acb 021a 6b81 e54e d1ab 8117
00000030: 3df6 71e2 08b7 817f 0d08 ba7f dcf2 7f32
00000040: 3413 71d4 167f dabe 7f4e 6207 1735 7f07
00000050: 1eb1 ef8e 40bb 5613 aaad f583 bf39 554e
00000060: a7d4 6aa7 edab 2e00 a0d6 7cf5 d3c8 0dcf
00000070: 1819 7ec6 4b7f 2544 2b54 adf5 293f e867
00000080: f3b5 7f26 331a 36ba 5333 a2d6 43c7 ef06
00000090: 0b6c d8db 819e da2c 9a0d d62a bcf2 b8be
000000a0: 26ac 7f81 e3c0 f281 81fd b1ad 69f5 8781
000000b0: 7f81 1c81 8187 cb40 7f2d 9cd0 817f 1581
000000c0: 6b9c 561d f63e fa75 ab1e 4221 cfd4 f293
000000d0: 7f81 da93 1681 7f88 edd0 7fa0 3603 0f53
000000e0: cbb4 c5f5 c141 c649 51d1 867c ccee 9bf4
000000f0: 47d4 f3fa e9f6 8307 ee27 1023 624a 63de
127 -127 -1 -70 -46 17 -127 -77
7 -18 -88 6 55 111 4 -105
21 -57 47 93 7 60 16 -52
-73 -22 -87 -22 -127 -127 85 113
-77 -70 -6 -17 26 -53 2 26
107 -127 -27 78 -47 -85 -127 23
61 -10 113 -30 8 -73 -127 127
13 8 -70 127 -36 -14 127 50
52 19 113 -44 22 127 -38 -66
127 78 98 7 23 53 127 7
30 -79 -17 -114 64 -69 86 19
-86 -83 -11 -125 -65 57 85 78
-89 -44 106 -89 -19 -85 46 0
-96 -42 124 -11 -45 -56 13 -49
24 25 126 -58 75 127 37 68
43 84 -83 -11 41 63 -24 103
-13 -75 127 38 51 26 54 -70
83 51 -94 -42 67 -57 -17 6
11 108 -40 -37 -127 -98 -38 44
-102 13 -42 42 -68 -14 -72 -66
38 -84 127 -127 -29 -64 -14 -127
-127 -3 -79 -83 105 -11 -121 -127
127 -127 28 -127 -127 -121 -53 64
127 45 -100 -48 -127 127 21 -127
107 -100 86 29 -10 62 -6 117
-85 30 66 33 -49 -44 -14 -109
127 -127 -38 -109 22 -127 127 -120
-19 -48 127 -96 54 3 15 83
-53 -76 -59 -11 -63 65 -58 73
81 -47 -122 124 -52 -18 -101 -12
71 -44 -13 -6 -23 -10 -125 7
-18 39 16 35 98 74 99 -34

SoundGate_DSCNN/conv2d/Conv2D i1 [64, 1, 1, 32]
00000000: 18dd 77a8 d41b fb92 ac1e bfde b704 d63d
00000010: ffd6 0a16 4d20 34e2 077f b3d9 1dac c75d
00000020: f73b e6d1 e858 bbdc 0ecf 0d1f d92a f938
00000030: 7f22 d62a e0f2 cbc1 07b9 4a2a e7a7 f608
00000040: b956 ab54 a432 f8e1 38ff 94bd 3ffe 0264
00000050: f595 492e 7f1d 923c 37ef bf9f a856 9b6d
00000060: 2eac 3a26 749f 3c14 3120 b948 1658 02dc
00000070: 050c de57 11ee 3c3f 1323 e0fa 08a7 4f81
00000080: bb6e 14de f0e2 ce66 24b5 63b3 a69c ceb9
00000090: 2472 7fe8 de4f 3622 3ead ecec a989 46d9
000000a0: b1fd c919 2944 e819 eadd 08d8 8142 edc2
000000b0: d4e4 28bf ef99 d4e0 fbd8 1338 a819 4107
000000c0: e52d 39d0 8e29 d10f b8d4 d785 2096 0633
000000d0: bccb 95a8 1fc0 012c 39e6 a710 b0c6 587f
000000e0: cece 52e3 e72e 9b71 fc29 59e4 cabc d400
000000f0: 3538 11d0 238c d83a a37f e418 e868 63cc
24 -35 119 -88 -44 27 -5 -110
-84 30 -65 -34 -73 4 -42 61
-1 -42 10 22 77 32 52 -30
7 127 -77 -39 29 -84 -57 93
-9 59 -26 -47 -24 88 -69 -36
14 -49 13 31 -39 42 -7 56
127 34 -42 42 -32 -14 -53 -63
7 -71 74 42 -25 -89 -10 8
-71 86 -85 84 -92 50 -8 -31
56 -1 -108 -67 63 -2 2 100
-11 -107 73 46 127 29 -110 60
55 -17 -65 -97 -88 86 -101 109
46 -84 58 38 116 -97 60 20
49 32 -71 72 22 88 2 -36
5 12 -34 87 17 -18 60 63
19 35 -32 -6 8 -89 79 -127
-69 110 20 -34 -16 -30 -50 102
36 -75 99 -77 -90 -100 -50 -71
36 114 127 -24 -34 79 54 34
62 -83 -20 -20 -87 -119 70 -39
-79 -3 -55 25 41 68 -24 25
-22 -35 8 -40 -127 66 -19 -62
-44 -28 40 -65 -17 -103 -44 -32
-5 -40 19 56 -88 25 65 7
-27 45 57 -48 -114 41 -47 15
-72 -44 -41 -123 32 -106 6 51
-68 -53 -107 -88 31 -64 1 44
57 -26 -89 16 -80 -58 88 127
-50 -50 82 -29 -25 46 -101 113
-4 41 89 -28 -54 -68 -44 0
53 56 17 -48 35 -116 -40 58
-93 127 -28 24 -24 104 99 -52

SoundGate_DSCNN/batch_normalization/FusedBatchNormV3;SoundGate_DSCNN/depthwise_conv2d/depthwise i1 [1, 3, 3, 32]
00000000: 81e3 e7f1 f90b b4e7 ed0c 7fdb 8109 e8f5
00000010: 895e b4cb e6ce fa38 1be1 817f 4f2b 7f39
00000020: 3ce2 4ff4 1b91 85e6 dcc6 8e12 fec8 ada9
00000030: 9818 cd7f 5cc8 8144 03fd 6ad7 997f 193b
00000040: e04f d652 4bcb 8182 d63c f235 39ef be01
00000050: f133 432d 0ac7 16cf 311a e177 ee1a 34d6
00000060: b781 e52d 0848 a632 d8a6 7206 bca5 6f88
00000070: 6081 81b1 b081 197f 00df 5114 bb29 e9cf
00000080: 4b96 81e3 7fbc a2e6 81ed da08 dbdc 7f61
00000090: 3ce8 72dd 549f cbab 4781 5952 817f 6bb6
000000a0: 44be f17f 517f d807 b8ff bf7f e520 4cd6
000000b0: e40c 9ef5 bba3 9139 e6e3 e96f f428 19ca
000000c0: f811 35e7 d328 977f 4534 41c5 ef98 bfcc
000000d0: fae7 bc06 36e8 bb7d 81f6 9028 b51c f8fa
000000e0: b8d5 d4de 35e2 4c4c ac93 e8f8 d281 b9dd
000000f0: 7fab 4a03 7fb1 f32c c1af 302a 530a 1d01
-127 -29 -25 -15 -7 11 -76 -25
-19 12 127 -37 -127 9 -24 -11
-119 94 -76 -53 -26 -50 -6 56
27 -31 -127 127 79 43 127 57
60 -30 79 -12 27 -111 -123 -26
-36 -58 -114 18 -2 -56 -83 -87
-104 24 -51 127 92 -56 -127 68
3 -3 106 -41 -103 127 25 59
-32 79 -42 82 75 -53 -127 -126
-42 60 -14 53 57 -17 -66 1
-15 51 67 45 10 -57 22 -49
49 26 -31 119 -18 26 52 -42
-73 -127 -27 45 8 72 -90 50
-40 -90 114 6 -68 -91 111 -120
96 -127 -127 -79 -80 -127 25 127
0 -33 81 20 -69 41 -23 -49
75 -106 -127 -29 127 -68 -94 -26
-127 -19 -38 8 -37 -36 127 97
60 -24 114 -35 84 -97 -53 -85
71 -127 89 82 -127 127 107 -74
68 -66 -15 127 81 127 -40 7
-72 -1 -65 127 -27 32 76 -42
-28 12 -98 -11 -69 -93 -111 57
-26 -29 -23 111 -12 40 25 -54
-8 17 53 -25 -45 40 -105 127
69 52 65 -59 -17 -104 -65 -52
-6 -25 -68 6 54 -24 -69 125
-127 -10 -112 40 -75 28 -8 -6
-72 -43 -44 -34 53 -30 76 76
-84 -109 -24 -8 -46 -127 -71 -35
127 -85 74 3 127 -79 -13 44
-63 -81 48 42 83 10 29 1

SoundGate_DSCNN/stem_conv/Conv2D i1 [32, 3, 3, 1]
00000000: 50a7 d740 be8c ef04 8141 9ed9 f9d2 7f69
00000010: ad83 427f 3cf6 001f ec2d 5ada 24c1 f9e9
00000020: 8127 1a89 de3b 03f2 7fc8 4759 9d40 0e76
00000030: c100 7f52 9b4a 35ff 7feb 8531 0cf5 e87f
00000040: e21a c201 07e3 f10c 13fa 958a fdc7 7fdd
00000050: f189 0e7f 60d7 12d4 2327 1b02 08ad 7251
00000060: 057f 3ce6 f143 fd19 2ae0 c67f 7fc4 820e
00000070: ed63 73c9 a4a2 417f 3706 05cf 9077 487f
00000080: bdd0 2b4e 33d1 2b0d 8155 5bb9 355b edac
00000090: 8b84 f87f 7d5a d9fe f856 a1ee 2df3 117f
000000a0: 4338 017f 0ab5 600b 0dcd 8302 81dd 0817
000000b0: e90a ce15 dc86 9e4d ae57 1781 5385 d188
000000c0: 4858 81ca 005b 3720 394f 7f19 b56d 4095
000000d0: f945 08b3 e881 cc6d 6607 3521 7f7c b020
000000e0: dd3c 2c01 7f33 75d8 fc13 062d 7f08 ef4e
000000f0: d9d6 0579 36ea 7f4a c479 b2b3 2a21 90d2
80 -89 -41 64 -66 -116 -17 4
-127 65 -98 -39 -7 -46 127 105
-83 -125 66 127 60 -10 0 31
-20 45 90 -38 36 -63 -7 -23
-127 39 26 -119 -34 59 3 -14
127 -56 71 89 -99 64 14 118
-63 0 127 82 -101 74 53 -1
127 -21 -123 49 12 -11 -24 127
-30 26 -62 1 7 -29 -15 12
19 -6 -107 -118 -3 -57 127 -35
-15 -119 14 127 96 -41 18 -44
35 39 27 2 8 -83 114 81
5 127 60 -26 -15 67 -3 25
42 -32 -58 127 127 -60 -126 14
-19 99 115 -55 -92 -94 65 127
55 6 5 -49 -112 119 72 127
-67 -48 43 78 51 -47 43 13
-127 85 91 -71 53 91 -19 -84
-117 -124 -8 127 125 90 -39 -2
-8 86 -95 -18 45 -13 17 127
67 56 1 127 10 -75 96 11
13 -51 -125 2 -127 -35 8 23
-23 10 -50 21 -36 -122 -98 77
-82 87 23 -127 83 -123 -47 -120
72 88 -127 -54 0 91 55 32
57 79 127 25 -75 109 64 -107
-7 69 8 -77 -24 -127 -52 109
102 7 53 33 127 124 -80 32
-35 60 44 1 127 51 117 -40
-4 19 6 45 127 8 -17 78
-39 -42 5 121 54 -22 127 74
-60 121 -78 -77 42 33 -112 -46
